…
    "\n",
    "where $x$ is the input to the $GeLU$ activation. It provides a smoother function than the `ReLU.`"
   ]
  },
  {
   "attachments": {},
   "cell_type": "markdown",
   "metadata": {},
   "source": [
    "Let us display the whole architecture below."
   ]
  },
  {
   "cell_type": "code",
   "execution_count": 3,
   "metadata": {},
   "outputs": [
    {
     "data": {
      "text/plain": [
       "ViTForImageClassification(\n",
       "  (vit): ViTModel(\n",
       "    (embeddings): ViTEmbeddings(\n",
       "      (patch_embeddings): ViTPatchEmbeddings(\n",
       "        (projection): Conv2d(3, 768, kernel_size=(16, 16), stride=(16, 16))\n",
       "      )\n",
       "      (dropout): Dropout(p=0.0, inplace=False)\n",
       "    )\n",
       "    (encoder): ViTEncoder(\n",
       "      (layer): ModuleList(\n",
       "        (0): ViTLayer(\n",
       "          (attention): ViTAttention(\n",
       "            (attention): ViTSelfAttention(\n",
       "              (query): Linear(in_features=768, out_features=768, bias=True)\n",
       "              (key): Linear(in_features=768, out_features=768, bias=True)\n",
       "              (value): Linear(in_features=768, out_features=768, bias=True)\n",
       "              (dropout): Dropout(p=0.0, inplace=False)\n",
       "            )\n",
       "            (output): ViTSelfOutput(\n",
       "              (dense): Linear(in_features=768, out_features=768, bias=True)\n",
       "              (dropout): Dropout(p=0.0, inplace=False)\n",
       "            )\n",
       "          )\n",
       "          (intermediate): ViTIntermediate(\n",
       "            (dense): Linear(in_features=768, out_features=3072, bias=True)\n",
       "            (intermediate_act_fn): GELUActivation()\n",
       "          )\n",
       "          (output): ViTOutput(\n",
       "            (dense): Linear(in_features=3072, out_features=768, bias=True)\n",
       "            (dropout): Dropout(p=0.0, inplace=False)\n",
       "          )\n",
       "          (layernorm_before): LayerNorm((768,), eps=1e-12, elementwise_affine=True)\n",
       "          (layernorm_after): LayerNorm((768,), eps=1e-12, elementwise_affine=True)\n",
       "        )\n",
       "        (1): ViTLayer(\n",
       "          (attention): ViTAttention(\n",
       "            (attention): ViTSelfAttention(\n",
       "              (query): Linear(in_features=768, out_features=768, bias=True)\n",
       "              (key): Linear(in_features=768, out_features=768, bias=True)\n",
       "              (value): Linear(in_features=768, out_features=768, bias=True)\n",
       "              (dropout): Dropout(p=0.0, inplace=False)\n",
       "            )\n",
       "            (output): ViTSelfOutput(\n",
       "              (dense): Linear(in_features=768, out_features=768, bias=True)\n",
       "              (dropout): Dropout(p=0.0, inplace=False)\n",
       "            )\n",
       "          )\n",
       "          (intermediate): ViTIntermediate(\n",
       "            (dense): Linear(in_features=768, out_features=3072, bias=True)\n",
       "            (intermediate_act_fn): GELUActivation()\n",
       "          )\n",
       "          (output): ViTOutput(\n",
       "            (dense): Linear(in_features=3072, out_features=768, bias=True)\n",
       "            (dropout): Dropout(p=0.0, inplace=False)\n",
       "          )\n",
       "          (layernorm_before): LayerNorm((768,), eps=1e-12, elementwise_affine=True)\n",
       "          (layernorm_after): LayerNorm((768,), eps=1e-12, elementwise_affine=True)\n",
       "        )\n",
       "        (2): ViTLayer(\n",
       "          (attention): ViTAttention(\n",
       "            (attention): ViTSelfAttention(\n",
       "              (query): Linear(in_features=768, out_features=768, bias=True)\n",
       "              (key): Linear(in_features=768, out_features=768, bias=True)\n",
       "              (value): Linear(in_features=768, out_features=768, bias=True)\n",
       "              (dropout): Dropout(p=0.0, inplace=False)\n",
       "            )\n",
       "            (output): ViTSelfOutput(\n",
       "              (dense): Linear(in_features=768, out_features=768, bias=True)\n",
       "              (dropout): Dropout(p=0.0, inplace=False)\n",
       "            )\n",
       "          )\n",
       "          (intermediate): ViTIntermediate(\n",
       "            (dense): Linear(in_features=768, out_features=3072, bias=True)\n",
       "            (intermediate_act_fn): GELUActivation()\n",
       "          )\n",
       "          (output): ViTOutput(\n",
       "            (dense): Linear(in_features=3072, out_features=768, bias=True)\n",
       "            (dropout): Dropout(p=0.0, inplace=False)\n",
       "          )\n",
       "          (layernorm_before): LayerNorm((768,), eps=1e-12, elementwise_affine=True)\n",
       "          (layernorm_after): LayerNorm((768,), eps=1e-12, elementwise_affine=True)\n",
       "        )\n",
       "        (3): ViTLayer(\n",
       "          (attention): ViTAttention(\n",
       "            (attention): ViTSelfAttention(\n",
       "              (query): Linear(in_features=768, out_features=768, bias=True)\n",
       "              (key): Linear(in_features=768, out_features=768, bias=True)\n",
       "              (value): Linear(in_features=768, out_features=768, bias=True)\n",
       "              (dropout): Dropout(p=0.0, inplace=False)\n",
       "            )\n",
       "            (output): ViTSelfOutput(\n",
       "              (dense): Linear(in_features=768, out_features=768, bias=True)\n",
       "              (dropout): Dropout(p=0.0, inplace=False)\n",
       "            )\n",
       "          )\n",
       "          (intermediate): ViTIntermediate(\n",
       "            (dense): Linear(in_features=768, out_features=3072, bias=True)\n",
       "            (intermediate_act_fn): GELUActivation()\n",
       "          )\n",
       "          (output): ViTOutput(\n",
       "            (dense): Linear(in_features=3072, out_features=768, bias=True)\n",
       "            (dropout): Dropout(p=0.0, inplace=False)\n",
       "          )\n",
       "          (layernorm_before): LayerNorm((768,), eps=1e-12, elementwise_affine=True)\n",
       "          (layernorm_after): LayerNorm((768,), eps=1e-12, elementwise_affine=True)\n",
       "        )\n",
       "        (4): ViTLayer(\n",
       "          (attention): ViTAttention(\n",
       "            (attention): ViTSelfAttention(\n",
       "              (query): Linear(in_features=768, out_features=768, bias=True)\n",
       "              (key): Linear(in_features=768, out_features=768, bias=True)\n",
       "              (value): Linear(in_features=768, out_features=768, bias=True)\n",
       "              (dropout): Dropout(p=0.0, inplace=False)\n",
       "            )\n",
       "            (output): ViTSelfOutput(\n",
       "              (dense): Linear(in_features=768, out_features=768, bias=True)\n",
       "              (dropout): Dropout(p=0.0, inplace=False)\n",
       "            )\n",
       "          )\n",
       "          (intermediate): ViTIntermediate(\n",
       "            (dense): Linear(in_features=768, out_features=3072, bias=True)\n",
       "            (intermediate_act_fn): GELUActivation()\n",
       "          )\n",
       "          (output): ViTOutput(\n",
       "            (dense): Linear(in_features=3072, out_features=768, bias=True)\n",
       "            (dropout): Dropout(p=0.0, inplace=False)\n",
       "          )\n",
       "          (layernorm_before): LayerNorm((768,), eps=1e-12, elementwise_affine=True)\n",
       "          (layernorm_after): LayerNorm((768,), eps=1e-12, elementwise_affine=True)\n",
       "        )\n",
       "        (5): ViTLayer(\n",
       "          (attention): ViTAttention(\n",
       "            (attention): ViTSelfAttention(\n",
       "              (query): Linear(in_features=768, out_features=768, bias=True)\n",
       "              (key): Linear(in_features=768, out_features=768, bias=True)\n",
       "              (value): Linear(in_features=768, out_features=768, bias=True)\n",
       "              (dropout): Dropout(p=0.0, inplace=False)\n",
       "            )\n",
       "            (output): ViTSelfOutput(\n",
       "              (dense): Linear(in_features=768, out_features=768, bias=True)\n",
       "              (dropout): Dropout(p=0.0, inplace=False)\n",
       "            )\n",
       "          )\n",
       "          (intermediate): ViTIntermediate(\n",
       "            (dense): Linear(in_features=768, out_features=3072, bias=True)\n",
       "            (intermediate_act_fn): GELUActivation()\n",
       "          )\n",
       "          (output): ViTOutput(\n",
       "            (dense): Linear(in_features=3072, out_features=768, bias=True)\n",
       "            (dropout): Dropout(p=0.0, inplace=False)\n",
       "          )\n",
       "          (layernorm_before): LayerNorm((768,), eps=1e-12, elementwise_affine=True)\n",
       "          (layernorm_after): LayerNorm((768,), eps=1e-12, elementwise_affine=True)\n",
       "        )\n",
       "        (6): ViTLayer(\n",
       "          (attention): ViTAttention(\n",
       "            (attention): ViTSelfAttention(\n",
       "              (query): Linear(in_features=768, out_features=768, bias=True)\n",
       "              (key): Linear(in_features=768, out_features=768, bias=True)\n",
       "              (value): Linear(in_features=768, out_features=768, bias=True)\n",
       "              (dropout): Dropout(p=0.0, inplace=False)\n",
       "            )\n",
       "            (output): ViTSelfOutput(\n",
       "              (dense): Linear(in_features=768, out_features=768, bias=True)\n",
       "              (dropout): Dropout(p=0.0, inplace=False)\n",
       "            )\n",
       "          )\n",
       "          (intermediate): ViTIntermediate(\n",
       "            (dense): Linear(in_features=768, out_features=3072, bias=True)\n",
       "            (intermediate_act_fn): GELUActivation()\n",
       "          )\n",
       "          (output): ViTOutput(\n",
       "            (dense): Linear(in_features=3072, out_features=768, bias=True)\n",
       "            (dropout): Dropout(p=0.0, inplace=False)\n",
       "          )\n",
       "          (layernorm_before): LayerNorm((768,), eps=1e-12, elementwise_affine=True)\n",
       "          (layernorm_after): LayerNorm((768,), eps=1e-12, elementwise_affine=True)\n",
       "        )\n",
       "        (7): ViTLayer(\n",
       "          (attention): ViTAttention(\n",
       "            (attention): ViTSelfAttention(\n",
       "              (query): Linear(in_features=768, out_features=768, bias=True)\n",
       "              (key): Linear(in_features=768, out_features=768, bias=True)\n",
       "              (value): Linear(in_features=768, out_features=768, bias=True)\n",
       "              (dropout): Dropout(p=0.0, inplace=False)\n",
       "            )\n",
       "            (output): ViTSelfOutput(\n",
       "              (dense): Linear(in_features=768, out_features=768, bias=True)\n",
       "              (dropout): Dropout(p=0.0, inplace=False)\n",
       "            )\n",
       "          )\n",
       "          (intermediate): ViTIntermediate(\n",
       "            (dense): Linear(in_features=768, out_features=3072, bias=True)\n",
       "            (intermediate_act_fn): GELUActivation()\n",
       "          )\n",
       "          (output): ViTOutput(\n",
       "            (dense): Linear(in_features=3072, out_features=768, bias=True)\n",
       "            (dropout): Dropout(p=0.0, inplace=False)\n",
       "          )\n",
       "          (layernorm_before): LayerNorm((768,), eps=1e-12, elementwise_affine=True)\n",
       "          (layernorm_after): LayerNorm((768,), eps=1e-12, elementwise_affine=True)\n",
       "        )\n",
       "        (8): ViTLayer(\n",
       "          (attention): ViTAttention(\n",
       "            (attention): ViTSelfAttention(\n",
       "              (query): Linear(in_features=768, out_features=768, bias=True)\n",
       "              (key): Linear(in_features=768, out_features=768, bias=True)\n",
       "              (value): Linear(in_features=768, out_features=768, bias=True)\n",
       "              (dropout): Dropout(p=0.0, inplace=False)\n",
       "            )\n",
       "            (output): ViTSelfOutput(\n",
       "              (dense): Linear(in_features=768, out_features=768, bias=True)\n",
       "              (dropout): Dropout(p=0.0, inplace=False)\n",
       "            )\n",
       "          )\n",
       "          (intermediate): ViTIntermediate(\n",
       "            (dense): Linear(in_features=768, out_features=3072, bias=True)\n",
       "            (intermediate_act_fn): GELUActivation()\n",
       "          )\n",
       "          (output): ViTOutput(\n",
       "            (dense): Linear(in_features=3072, out_features=768, bias=True)\n",
       "            (dropout): Dropout(p=0.0, inplace=False)\n",
       "          )\n",
       "          (layernorm_before): LayerNorm((768,), eps=1e-12, elementwise_affine=True)\n",
       "          (layernorm_after): LayerNorm((768,), eps=1e-12, elementwise_affine=True)\n",
       "        )\n",
       "        (9): ViTLayer(\n",
       "          (attention): ViTAttention(\n",
       "            (attention): ViTSelfAttention(\n",
       "              (query): Linear(in_features=768, out_features=768, bias=True)\n",
       "              (key): Linear(in_features=768, out_features=768, bias=True)\n",
       "              (value): Linear(in_features=768, out_features=768, bias=True)\n",
       "              (dropout): Dropout(p=0.0, inplace=False)\n",
       "            )\n",
       "            (output): ViTSelfOutput(\n",
       "              (dense): Linear(in_features=768, out_features=768, bias=True)\n",
       "              (dropout): Dropout(p=0.0, inplace=False)\n",
       "            )\n",
       "          )\n",
       "          (intermediate): ViTIntermediate(\n",
       "            (dense): Linear(in_features=768, out_features=3072, bias=True)\n",
       "            (intermediate_act_fn): GELUActivation()\n",
       "          )\n",
       "          (output): ViTOutput(\n",
       "            (dense): Linear(in_features=3072, out_features=768, bias=True)\n",
       "            (dropout): Dropout(p=0.0, inplace=False)\n",
       "          )\n",
       "          (layernorm_before): LayerNorm((768,), eps=1e-12, elementwise_affine=True)\n",
       "          (layernorm_after): LayerNorm((768,), eps=1e-12, elementwise_affine=True)\n",
       "        )\n",
       "        (10): ViTLayer(\n",
       "          (attention): ViTAttention(\n",
       "            (attention): ViTSelfAttention(\n",
       "              (query): Linear(in_features=768, out_features=768, bias=True)\n",
       "              (key): Linear(in_features=768, out_features=768, bias=True)\n",
       "              (value): Linear(in_features=768, out_features=768, bias=True)\n",
       "              (dropout): Dropout(p=0.0, inplace=False)\n",
       "            )\n",
       "            (output): ViTSelfOutput(\n",
       "              (dense): Linear(in_features=768, out_features=768, bias=True)\n",
       "              (dropout): Dropout(p=0.0, inplace=False)\n",
       "            )\n",
       "          )\n",
       "          (intermediate): ViTIntermediate(\n",
       "            (dense): Linear(in_features=768, out_features=3072, bias=True)\n",
       "            (intermediate_act_fn): GELUActivation()\n",
       "          )\n",
       "          (output): ViTOutput(\n",
       "            (dense): Linear(in_features=3072, out_features=768, bias=True)\n",
       "            (dropout): Dropout(p=0.0, inplace=False)\n",
       "          )\n",
       "          (layernorm_before): LayerNorm((768,), eps=1e-12, elementwise_affine=True)\n",
       "          (layernorm_after): LayerNorm((768,), eps=1e-12, elementwise_affine=True)\n",
       "        )\n",
       "        (11): ViTLayer(\n",
       "          (attention): ViTAttention(\n",
       "            (attention): ViTSelfAttention(\n",
       "              (query): Linear(in_features=768, out_features=768, bias=True)\n",
       "              (key): Linear(in_features=768, out_features=768, bias=True)\n",
       "              (value): Linear(in_features=768, out_features=768, bias=True)\n",
       "              (dropout): Dropout(p=0.0, inplace=False)\n",
       "            )\n",
       "            (output): ViTSelfOutput(\n",
       "              (dense): Linear(in_features=768, out_features=768, bias=True)\n",
       "              (dropout): Dropout(p=0.0, inplace=False)\n",
       "            )\n",
       "          )\n",
       "          (intermediate): ViTIntermediate(\n",
       "            (dense): Linear(in_features=768, out_features=3072, bias=True)\n",
       "            (intermediate_act_fn): GELUActivation()\n",
       "          )\n",
       "          (output): ViTOutput(\n",
       "            (dense): Linear(in_features=3072, out_features=768, bias=True)\n",
       "            (dropout): Dropout(p=0.0, inplace=False)\n",
       "          )\n",
       "          (layernorm_before): LayerNorm((768,), eps=1e-12, elementwise_affine=True)\n",
       "          (layernorm_after): LayerNorm((768,), eps=1e-12, elementwise_affine=True)\n",
       "        )\n",
       "      )\n",
       "    )\n",
       "    (layernorm): LayerNorm((768,), eps=1e-12, elementwise_affine=True)\n",
       "  )\n",
       "  (classifier): Linear(in_features=768, out_features=2, bias=True)\n",
       ")"
      ]
     },
     "execution_count": 3,
     "metadata": {},
     "output_type": "execute_result"
    }
   ],
   "source": [
    "vit_model"
   ]
  },
  {
   "attachments": {},
   "cell_type": "markdown",
   "metadata": {},
   "source": [
    "### Attention"
   ]
  },
  {
   "attachments": {},
   "cell_type": "markdown",
   "metadata": {},
…
